app/src/main/assets/chatbot_model.tflite (tflite, 93264 bytes, 6 tensors)

arith.constant f4 [7, 64]
00000000: 5b1f f3be 2252 633f 120e f03d fa17 8a3e
00000010: ed79 86be ad5f b53e 366a d63d 2751 113f
00000020: 61cb 843e 7771 e0bd 7063 b5be 09a2 f23e
00000030: a37b bd3e 54fd 8bbe fc6c a2be e31e 003e
00000040: f4e9 043f a69b 143f 596f e7be a24f 843e
00000050: 9e46 b5be a179 84bd 7ea8 de3e 81cb 253f
00000060: 0341 acbe 660a 19be 731d 12bf c6ba 9ebe
00000070: 58b6 2dbd 515a 963e 6664 a3be 6f87 033d
00000080: ebea 073e cbf7 b2be eb14 283f 1cd0 533e
00000090: c829 a2bd 090a d8be 4865 623f 7b04 04bf
000000a0: 83c0 04bf db1f 6c3e 5461 22bf bd1e b4bd
000000b0: 25d4 bebe 588b ef3e 56dc b5be b10d 0dbf
000000c0: 50e4 bb3e 9c64 d53e 047f 45bf c7ce c73e
000000d0: 690e 32be 0893 ae3e e85a 023f 247b e0be
000000e0: c054 01bf 3c65 57be 1746 eebe aef8 613e
000000f0: 0947 163e 6453 123f d882 3dbe 419c 3f3f
00000100: 8419 0abf 6e7f 5ebe 3034 db3e b854 38bf
00000110: 0a7a f53e 31ca 14bf 30d8 88be 8b19 153f
00000120: b661 03bf 0e9a a73e c25c b93d de62 babe
00000130: cb9b 0c3f 9c28 e3be df6c d43e 67d5 15bf
00000140: d912 b53c a7d2 b73e 365e bb3e 8ab6 42be
00000150: 2fb1 e7bc c8c5 8dbe 7dde c53e ab24 74be
00000160: feb4 03bf 4ff1 bdbe adaa a03e 7a36 d83e
00000170: 158d febe 62bd 43bf 6a4d adbe f976 2cbe
00000180: 01a7 093e 1dbd 85be 5c6b 35bf 544b b53e
00000190: 2256 06be 7dda debe 85d0 e6bd cc76 c1be
000001a0: 3044 01bf 01ba 2bbd 8110 323f 60d4 40be
000001b0: 2bb7 c03e 22ad 2d3e cf14 bb3e d5a6 633e
000001c0: e6f9 d53e cc30 82be a9c9 203e 383f b6be
000001d0: b4d6 c53e 31d9 4dbe fb97 00bf 639f 463f
000001e0: 317b 293e 4f1f 9e3d ed57 f0be b026 ee3e
000001f0: a5c6 3f3e 92c9 25bf 415a 20bf 32c7 4b3e
00000200: 8779 283e 102c 2abe e601 d9be cfb8 cc3e
00000210: 0cee be3e 4c9b d5be 2126 ee3e 8f76 09bf
00000220: aba8 2a3f 27eb 303e 783c 013f c60d cfbe
00000230: ee18 0f3f 2cff 71be 8a81 e1be 1b0a 0f3f
00000240: 5884 163d 1394 c13d 64df 683e e4e0 203f
00000250: 042c 5cbe a712 c4be 55ef 11bf 30b4 28bf
00000260: abe7 c63e d512 41be b7f4 7a3e f50e b1be
00000270: 46af f1be 6350 0f3f 6b83 a8be f2d0 823d
00000280: dbe9 eebd 41b0 7bbe 8c16 25be 8e58 793b
00000290: e8c9 de3c d415 c0be ce21 3cbe fba0 93be
000002a0: ea97 d0be 8dd7 88be d095 5bbe 82c7 31be
000002b0: cf8c 0c3f 52f8 8ebe 7f85 66be d50d dd3e
000002c0: 5e20 ffbe 2e06 1b3f ca97 093f e8e5 03bf
000002d0: f09c 03bf 3079 383f f7af b93e 5763 a43d
000002e0: ac29 b43d d036 99be 6eed b1be a9e0 153f
000002f0: 8fac 8d3b 95cf 5b3e 7e09 c9bd c033 13bf
00000300: 0c26 183f 83e0 5ebe 2059 d8be d242 1abf
00000310: 819b 943e 5910 203f 9fb4 05bd 9861 01be
00000320: 9a99 063e d3bf df3c 5005 42be 80c5 d83e
00000330: b872 14bf fe27 f83d 88d4 66be 6f36 6e3d
00000340: 11e6 373f a819 2c3e 0db9 8cbe ea67 ff3e
00000350: 9a64 8cbe 1742 c8be 7314 16bf 1262 0dbf
00000360: a002 55bd 3d90 5c3f f4a8 e33e 7c60 14bf
00000370: 786b 173f 83bf c0bd ed19 a8be 04cc 70be
00000380: 9842 243f 4c78 473f 0d02 193e cdec b7be
00000390: a2ac 723f b09f 223f 82f1 ca3e 8c77 e6be
000003a0: 35a3 323f 0164 ddbd ff16 943d 32fb fbbe
000003b0: 3c87 bbbe 0483 c8be 9650 b0bd 4ae6 c93e
000003c0: 8093 ac3e c95c 103e d44c 6d3e 48d8 65be
000003d0: 88ae cbbd b7c5 a6be c8a8 ff3d aa29 b63d
000003e0: 6d69 01be c157 663f 610d fa3e 5e6f f6be
000003f0: ed92 2c3d 5bc8 d5be 6980 d3be 482d debe
-0.4748486 0.887972 0.11721434 0.26971418 -0.26264897 0.35424557 0.10469477 0.56764454
0.25936416 -0.10959142 -0.35427427 0.47389248 0.3700839 -0.27341712 -0.31723773 0.12511782
0.51919484 0.5805 -0.4520214 0.25842005 -0.3540544 -0.064685114 0.43487924 0.6476365
-0.3364335 -0.14945373 -0.57076186 -0.31001872 -0.042410225 0.2936578 -0.31912535 0.03211158
0.13273208 -0.34954676 0.6565692 0.20684856 -0.079181254 -0.42195156 0.8843579 -0.51569337
-0.5185625 0.23059027 -0.6342976 -0.08794925 -0.37271228 0.46785998 -0.35519665 -0.55099016
0.36697626 0.4167832 -0.77146935 0.39024946 -0.1738831 0.3409655 0.5091996 -0.4384395
-0.50519943 -0.21034712 -0.4653785 0.2206752 0.14675535 0.57158494 -0.18506944 0.748478
-0.53945184 -0.21728298 0.42813253 -0.7200427 0.4794467 -0.5812102 -0.26727438 0.582421
-0.5132097 0.32734722 0.09050895 -0.36403555 0.5492522 -0.4436692 0.41489312 -0.5852875
0.022103714 0.35902902 0.36595315 -0.19014946 -0.02828273 -0.27689958 0.38646308 -0.23842113
-0.5144805 -0.37098166 0.31380215 0.42229062 -0.49717012 -0.7646085 -0.33848125 -0.1684226
0.13442613 -0.26120844 -0.7086694 0.35409033 -0.13118795 -0.43526068 -0.11270241 -0.37785947
-0.5049467 -0.041925434 0.6955643 -0.18831015 0.37639746 0.16960576 0.36539313 0.2223161
0.4179222 -0.25427854 0.15701927 -0.35595107 0.38640368 -0.20102383 -0.50231904 0.77586955
0.165509 0.077208154 -0.46942082 0.4651389 0.1872812 -0.64760697 -0.62637717 0.19900206
0.16452609 -0.16618371 -0.4238426 0.39984748 0.3729099 -0.41720045 0.46513465 -0.5369653
0.66663617 0.17277204 0.50482893 -0.40440196 0.55897415 -0.23632497 -0.44044143 0.55874795
0.036747307 0.09452071 0.22741467 0.62843156 -0.21501166 -0.3829548 -0.57005817 -0.65899944
0.38848624 -0.1885484 0.24507414 -0.34581724 -0.47204036 0.55982035 -0.32912764 0.063875094
-0.11665698 -0.24578954 -0.16121882 0.0038047167 0.027195886 -0.37516654 -0.1837227 -0.28833756
-0.407409 -0.26726952 -0.21443868 -0.17361262 0.54902357 -0.27923828 -0.22511862 0.43174616
-0.49829382 0.60556304 0.53747237 -0.51522684 -0.5141134 0.7205992 0.36267063 0.0802676
0.08797011 -0.2992463 -0.34751457 0.5854593 0.004323549 0.21465905 -0.098162636 -0.5750084
0.59433055 -0.21765332 -0.42255497 -0.6025821 0.2902489 0.62524945 -0.032642957 -0.12634885
0.13144532 0.027313149 -0.18947339 0.4233818 -0.57987547 0.12117003 -0.22542012 0.05815738
0.7183543 0.16806662 -0.27484933 0.49883968 -0.27420503 -0.39112923 -0.58624953 -0.5522777
-0.052004457 0.8615759 0.44464839 -0.57959723 0.5914836 -0.09411528 -0.3283228 -0.23515326
0.64164114 0.77917933 0.14942189 -0.35922852 0.94794667 0.63524914 0.3963738 -0.45013082
0.69780284 -0.1081009 0.07230949 -0.49215084 -0.36626613 -0.39162457 -0.086091205 0.3943351
0.33706284 0.14097895 0.23173839 -0.22445786 -0.099453986 -0.3257272 0.12483364 0.088946655
-0.12637873 0.8997765 0.48838332 -0.4813184 0.042132307 -0.41754422 -0.41308907 -0.43393922

arith.constant1 f4 [64, 128]
00000000: 78b2 12be ae50 17be 282d 813e f3e3 7dbd
00000010: 8b35 563e bf40 6e3d fe41 b6bc 36ac 063e
00000020: 6c75 083e 7df2 e03c 3394 803b f46a 7a3e
00000030: f04e 2cbe 5935 f3bd 7524 2f3e e188 923d
00000040: 5940 c4bc 4b78 483c 207c e03c 04f1 5a3d
00000050: 180c f23c 5317 3bbe d9c6 143e 7899 753d
00000060: 2e27 eabc fe49 63be 5492 77bd b79c d03c
00000070: 26bb 77bd 6fe4 1c3d af80 0bbe b05e 453e
00000080: d528 98be 56d7 e83d ad12 123e d61f f9bc
00000090: fda8 763e 8a29 6a3d 5735 d43d 2341 eebb
000000a0: 8a24 913c d088 353e 1978 82be 3129 863e
000000b0: 237c 043e 1390 a13d b149 b0bd 4b93 2a3e
000000c0: 0178 2fbd 085b 483d f373 6a3d 18d7 74bd
000000d0: a77f 6cbd 3a8d 593e 3ce1 193e 4895 693e
000000e0: d92e 8cbd cedd 253e b053 22be 801e d9bd
000000f0: 2e61 a83d b6ad 6e3d 9f4c 14be b380 143e
00000100: a4ea ab3c 156d 77bd 7b57 27be ebe3 16be
00000110: 4d2b f73b d65d b7bb 58fb ccbd 439c 39be
00000120: dd41 a9bd 53a8 ef3c 5e73 bcbc 68c7 b63c
00000130: 9208 483e 5b60 88bd 7604 c4bd 4596 edbc
00000140: d42a e13c dbed bb3e 90e6 1ebd cad6 043d
00000150: a719 28be 1348 423e 1476 eabc 18cc abbd
00000160: 470a d03c accf eb3c 7317 783e 44ad 7e3d
00000170: 0624 abbe 33f5 7f3e 8566 6d3d 94bf 4d3e
00000180: 7b34 64bd 4860 5cbe b2b5 e43d 1aa1 02be
00000190: 0c3f 33bd 182e aebd a628 47bd 9779 32be
000001a0: 6be8 37be 0d3f a63c 1598 adbd 15c2 883d
000001b0: ec85 803d fb5d 893e 29e9 763e 9e12 883e
000001c0: 8c7c 27be ee2a 393e e7c3 f43d 8764 cfbc
000001d0: 8216 66bd 1b3a 84be b63a 9e3d 4ac8 44be
000001e0: be84 223d f83a 0cbe 0c47 473d 1b92 1abe
000001f0: 8bc1 593e b8c6 ad3e 7af8 a1bd 930d 203e
00000200: 5436 19be 58bc bf3c 32cc 44bd 37fe 893d
00000210: 2645 23be c942 883d 6b95 5e3e 3946 4c3e
00000220: e75c a6bd e4a2 043e 6eeb f0bd 43dd d0bd
00000230: 8d00 6c3e 1956 403d 772e b23c 9063 bb3d
00000240: 329a e33c d9c9 813e cbd0 afbd a038 903d
00000250: b2fe efbd 58b3 26bb 9446 713e 5ddb 6bbe
00000260: fb4b 4abe 0b2f 3f3e 58dc 4c3e 63b0 073e
00000270: e07f ce3d c99e d1ba 4a5b 29be dbe9 c13d
00000280: ee7d e0bd 669a c63d 9acd 89bc ebaf d5bc
00000290: 24df 70be c249 403e 4138 1a3e 5498 3ebe
000002a0: 2e10 5d3e 753d 52be 81a1 a93d e676 5f3e
000002b0: bf76 e43d a8c1 9d3e e960 b63e f56b 22be
000002c0: 30bc 1fbe 31e4 89be 7a28 2a3c 7170 423d
000002d0: 5030 ef3d 3584 f8bd ee10 483d 2013 efbc
000002e0: 55e2 8cbb 28a3 c8bd 72b9 64be 3fd8 733d
000002f0: 067d d23d a968 8fbc 6936 c03e f328 be3d
00000300: ad72 b5bd abab 83bd 6826 f2bd 023f ac3e
00000310: b1fa 8b3d f54f 80bd 51e2 28be 8e0e 0cbd
00000320: aacf 3c3c 4aa1 e13c b87b 8d3d 438d d0bd
00000330: 560e db3c bd35 00be 7449 813e afee 49bd
00000340: 8b7b 55bd 311a 1fbe b8be 0ebe 93ba 973e
00000350: 7ef9 353b 32c8 57bd d3e4 983d 5814 f63d
00000360: 698d 37be a93e 9c3e b3e3 273d 475b 2cbe
00000370: 4a59 8e3e 5060 14be 9f87 5b3e f74d 4fbd
00000380: 10b7 db3c 854c c23e 0140 fd3c 3714 6abe
00000390: 5d1c 893c 80a4 f8bd 4659 453d 4a78 793d
000003a0: a9f1 5c3e 9e88 b73e 2b80 5d3c 7c2c 463e
000003b0: 396f 51be 4e87 22be 14d2 a73d 05cd db3d
000003c0: 0edc 313e 5ed1 06bc bfdb 56bd 1c61 033e
000003d0: 68b5 26be 33ee 513e e37a c9bd 617b 023e
000003e0: e82a b53d c305 b3bd ac34 aa3a 6fb5 6d3d
000003f0: ebf8 b53b 728e 5f3d fd51 f03d 507c 613e
-0.14325893 -0.1477687 0.25229764 -0.061984967 0.20918863 0.058167215 -0.022248264 0.13151631
0.13326043 0.027459377 0.0039239167 0.24454862 -0.16826987 -0.1187541 0.17103751 0.07155014
-0.023956465 0.012235711 0.027402937 0.053452507 0.029546782 -0.18270616 0.1452898 0.059960812
-0.028583135 -0.22196195 -0.060442284 0.025465352 -0.060481213 0.03830379 -0.13623308 0.19274402
-0.29718652 0.11369197 0.14264937 -0.030410688 0.24087901 0.05716852 0.10361736 -0.0072709485
0.017717618 0.17727971 -0.25482252 0.26203302 0.1293798 0.07888808 -0.086078055 0.1665775
-0.042839054 0.04891494 0.057239484 -0.059775442 -0.057738926 0.2124528 0.15027326 0.22810853
-0.06844873 0.16197893 -0.15852237 -0.106015205 0.082216606 0.058271132 -0.14482354 0.1450222
0.020985909 -0.060406763 -0.16341965 -0.14735381 0.0075430037 -0.005595903 -0.100088775 -0.18126015
-0.082645155 0.029255068 -0.02300423 0.022311881 0.1953452 -0.06659003 -0.09571163 -0.029002318
0.027486242 0.36704907 -0.0387941 0.0324314 -0.16416036 0.18972807 -0.028620757 -0.08388537
0.025395526 0.02878555 0.24227695 0.062176958 -0.3342592 0.2499588 0.0579591 0.20092613
-0.05571411 -0.21521103 0.11167468 -0.12756768 -0.043761298 -0.085048854 -0.04862275 -0.17429195
-0.17959754 0.020293737 -0.08476273 0.06677643 0.062755436 0.26829514 0.24112381 0.26576704
-0.16356105 0.18082783 0.11951428 -0.02531649 -0.05617381 -0.2582558 0.07726042 -0.19217029
0.039677374 -0.1369437 0.04865174 -0.15094797 0.21265237 0.33940673 -0.07908721 0.15630178
-0.14962131 0.023405239 -0.0480463 0.06737941 -0.15944347 0.06653363 0.21736686 0.19948663
-0.081231885 0.12952763 -0.11763655 -0.10198452 0.23047085 0.04695711 0.021750672 0.091498494
0.027783487 0.2534931 -0.08584746 0.0704205 -0.11718501 -0.0025436487 0.2356208 -0.23032899
-0.19755547 0.18670289 0.2000593 0.1325088 0.10082984 -0.0015992756 -0.1653873 0.094684325
-0.10961519 0.09697418 -0.016821671 -0.02608486 -0.23522621 0.18778136 0.15060522 -0.18612796
0.21588203 -0.20531256 0.082827576 0.218227 0.111554615 0.3081181 0.35620812 -0.15861495
-0.15599132 -0.2693191 0.010385627 0.047470514 0.11679137 -0.121345915 0.04884427 -0.029183924
-0.004299442 -0.097967446 -0.22336367 0.0595324 0.102777526 -0.01750596 0.37541512 0.09285154
-0.08859763 -0.064292274 -0.11823732 0.3364182 0.06834925 -0.062652506 -0.16492583 -0.034193568
0.01152412 0.027542729 0.06908363 -0.101831935 0.026740234 -0.125205 0.25251353 -0.049299892
-0.052119773 -0.15537335 -0.13939941 0.29634532 0.0027767117 -0.052681156 0.0746552 0.12015599
-0.17925037 0.30516556 0.040988635 -0.16831695 0.27802497 -0.14489865 0.21438454 -0.050611462
0.02682069 0.37949005 0.030914309 -0.22859274 0.016737157 -0.12140751 0.04818084 0.060905732
0.21576561 0.35846418 0.013519327 0.19352907 -0.20452584 -0.15871927 0.08194366 0.10732464
0.173691 -0.008228628 -0.05245566 0.12830013 -0.16280138 0.20501022 -0.09837892 0.12742378
0.08846074 -0.08741333 0.0012985668 0.058034357 0.005553355 0.054579206 0.11734388 0.22020078

arith.constant2 f4 [7]
00000000: 5b5c 9ebe ba1b 803f 7fd7 06bf 46d7 29bf
00000010: b925 573f 522c 8cbe 2e51 8bbd
-0.30929837 1.0008461 -0.5267257 -0.66344106 0.84041935 -0.27377564 -0.06802593

sequential_1/dense_1_2/BiasAdd/ReadVariableOp f4 [64]
00000000: ca80 193e b1f1 36be a744 063e ac58 493d
00000010: dc2a 203e 98c9 673e 173f 18be 2cc1 883e
00000020: 6a27 50bd 147c 803e e25a f63d 1082 b83b
00000030: eee3 e03e 107c 2bbd 8e98 c33e d1e6 803d
00000040: 2fe8 a5bc ee26 203e bfcd 5a3e 3f10 2abe
00000050: e389 29be 7bcb 45bc ed03 e63e b506 afbd
00000060: 00fd 363e d355 9bbe 76e2 ff3c 3769 033f
00000070: 23e8 abbd 5f8d 6a3e a48b 323e 4bef 163e
00000080: 024e 0f3c 89c4 2fbe 2b0d 023e bb68 943e
00000090: a116 84be 8cdd ecbd 0c7a 52be ccba 103e
000000a0: d617 db3c 8228 8d3d fcd7 d53e 422b 35bd
000000b0: 3383 d83d a87b 123e 6cf8 673e 1026 b1bc
000000c0: f1fc 193e 3ed8 adbd b089 803e 9f4a 1fbd
000000d0: 2781 b63d a32c 733d 97b6 70bb 3658 833e
000000e0: 6b67 b83d 7b61 77be d787 d93c 3e0c 703e
000000f0: a8d6 623c 9ac2 6a3d 26a0 663e 87bc 813e
0.14990535 -0.17865635 0.13112126 0.04915683 0.1564135 0.22635496 -0.14867817 0.26709878
-0.05081884 0.25094664 0.12029053 0.005630739 0.43923897 -0.041866362 0.38202327 0.06294025
-0.020252315 0.1563985 0.21367548 -0.1660776 -0.16556506 -0.012072439 0.4492487 -0.08546201
0.1786995 -0.30338916 0.031235915 0.5133242 -0.08393886 0.22905491 0.17436081 0.1473972
0.008746626 -0.17164816 0.12700336 0.28986153 -0.25798514 -0.11565694 -0.2055437 0.14133757
0.026744764 0.06892492 0.41766346 -0.044230707 0.10571899 0.14304984 0.22653359 -0.021624595
0.15037896 -0.084885105 0.25105047 -0.038889524 0.089113526 0.05936874 -0.0036729926 0.25653237
0.090041004 -0.2415828 0.026554031 0.2344217 0.013845123 0.057314493 0.2252203 0.25339147

sequential_1/dense_1/BiasAdd/ReadVariableOp f4 [128]
00000000: 5eaf 0e3d 6ba6 163e 5b99 cd3c 6c38 e03d
00000010: 6adb 383d b8c4 f73d fcc0 a8bd fd49 f6bd
00000020: 16a2 1cbe 57da 883d b503 c2bb d166 a8be
00000030: 086e c0bd 1d1b fbbd 3442 8dbd 9bbe a7bb
00000040: e31c 073e 01f9 b83c c5e2 a4be a73a 7c3d
00000050: e17c 153e 5567 8d3d bd4a e7bc 763c e6bd
00000060: 7fd1 83be dd7c 283e 39e6 9b3d 0b08 93bb
00000070: 0d8e 09bb 6a2c cbbd 1908 0e3e 6366 063d
00000080: 5918 683d b357 063e dd07 03be 37fa 2dbc
00000090: 3439 f1bc b5f6 e53c 8157 c8bc 850d 76be
000000a0: e770 c93d 64a4 2fbe cc5f 15bc 0251 94bd
000000b0: c3bf 363c 2dcb c53d 05f5 b63d b057 543e
000000c0: cf4c 083d 47b7 80bd 6bbd ce3c 5cb2 d53d
000000d0: 1d94 713d 6114 303d f769 1c3e 2b2d 75bd
000000e0: 1fb9 f0bc b41b af3d 5dfa 833d 860f 093d
000000f0: 0c88 03be 838a 1cbd c4e1 9e3d 3693 83bc
00000100: 2073 6a3e e173 92bd 9c76 57bb 47bc 88bd
00000110: 5ff3 bcbd 2394 00be 000a 94bd 2b33 783d
00000120: fe95 1ebd a861 a2bc eb5b 82bd 3fa1 09be
00000130: df9b 0b3c f475 e23b d078 513d f8d4 35bd
00000140: ed7c d7bc 869a 91be 218e 92bd 835b 99bd
00000150: 3f50 033e 9bf1 3fbd 9a30 ab3d 323b f3bc
00000160: c453 743e 99be ba3d 80aa 34be 8a42 b6bd
00000170: 1935 253e 1eda 2ebe 38a2 a23c 841c 61bd
00000180: ce23 843d 81bd d93d bf09 81be 99ab ad3c
00000190: a8db 9cbb 88d4 bdbd cada 953a 2cca 0b3e
000001a0: fdcf 2e3d 8f54 2d3e 35cf 4c3b 8ee2 8abb
000001b0: cc02 3ebd 36bc 0dbd 7886 07bc 7560 78bc
000001c0: 49f4 23bc 6526 953d fe7d f43d 0549 6d3e
000001d0: 0b55 05be 8058 09bc 72a3 cc3a 113d 2d3e
000001e0: d355 75bb b5ea 1d3e c3f8 57be 8e8a 0a3d
000001f0: 6ca0 3b3e 0279 7d3e c034 81bd 14f2 483d
0.034835212 0.14711921 0.02509754 0.109482616 0.045131125 0.12098068 -0.08239934 -0.12025831
-0.15296206 0.0668227 -0.005920852 -0.32890943 -0.09395987 -0.12261031 -0.06897393 -0.0051191575
0.13194613 0.022579672 -0.3220426 0.061579373 0.14598419 0.06904475 -0.02823388 -0.11242001
-0.2574577 0.16453882 0.07612271 -0.004487043 -0.002098921 -0.09920581 0.13870277 0.032812487
0.056663845 0.13119392 -0.12795968 -0.010618738 -0.029446222 0.02807174 -0.024455788 -0.24028595
0.098359875 -0.17152554 -0.009117078 -0.072420135 0.011154118 0.09657893 0.089334525 0.20736575
0.033276375 -0.062849574 0.025236806 0.1043441 0.058979142 0.042988185 0.15274797 -0.05985753
-0.029385148 0.08550206 0.064442374 0.03346207 -0.12844867 -0.038218033 0.07757905 -0.016061407
0.22895479 -0.071510084 -0.0032877093 -0.06676536 -0.09226107 -0.1255651 -0.0722847 0.060595673
-0.038717262 -0.019821957 -0.06365188 -0.13440417 0.008521049 0.0069110338 0.051140606 -0.044392556
-0.026304686 -0.28438205 -0.07156015 -0.074881576 0.1282358 -0.046861272 0.083588794 -0.029691312
0.23860079 0.09118385 -0.17643166 -0.0889941 0.16133536 -0.17075393 0.019852743 -0.054958835
0.06452142 0.10631848 -0.25202748 0.021199988 -0.0047869273 -0.09269053 0.0011433002 0.13651341
0.04267882 0.16926788 0.0031251435 -0.004238433 -0.046389386 -0.03460332 -0.008271806 -0.015159716
-0.010006973 0.07282714 0.119380936 0.23172386 -0.13020723 -0.008382916 0.0015612675 0.16917826
-0.0037435188 0.15421565 -0.21090989 0.033823542 0.18322915 0.24753192 -0.063088894 0.04905899

sequential_1/dense_1/MatMul f4 [128, 109]
00000000: 16ea 0fbe ca69 ab3d 9b96 12be e07e efbd
00000010: 6b46 bbbc 0890 a53c 91bd 86bd 9b21 febc
00000020: 1f8a 4abe c1c0 943e 754f 21be d3b4 893e
00000030: 0937 61bc 2806 2f3e f7eb bb3d 5615 463d
00000040: ed98 6bbd 546a dd3c b3aa 86bc 18b8 873c
00000050: f76e e3bc c3a8 693e 6ed6 243e c51b 34be
00000060: 285d f8bc 8fa6 e3bd a0a2 06be 1771 023e
00000070: 8f89 6ebd 2740 dbba c05b a7bb 4cb7 703b
00000080: 779f eebd afed 913c a275 abbd bc66 ffbd
00000090: f46c 55be c0df 68bc 4907 c33d 38cb 31bd
000000a0: 19d4 fb3d 9911 7a3d c292 ee3b e492 423e
000000b0: 95ed 23bc 2d8f 093c 431b 41bc 90c3 87bd
000000c0: d82e 2c3e c10a e63d c7a1 d23c c11a 81bd
000000d0: 3b54 61bd 6e8f e23d 0d81 c0bd 9ede 163e
000000e0: 305c 4d3e 4829 4abe b50a da3c 0a29 c63d
000000f0: 0efa f2bd 4f98 58bd ad52 233e 659d 723c
00000100: 7613 69be e3c3 0ebe 6a19 89bd 106a 4e3d
00000110: 7570 81bd 85b8 95bb dfaa 3d3d ab07 5c3d
00000120: de2f 7f3c 4356 dc3d a93a 9fbd 0a9a 3a3d
00000130: 0330 6cbd 474e 1bbe f713 953c 38fc 103e
00000140: 67d9 8d3d abef f7bd 2de3 b5bd 62e6 1dbc
00000150: 8f06 d53d e43f 673c b3b5 c9bd 88f9 ba3d
00000160: 76ee 3bbe 6e6c e4bd 81d6 1f3f 6844 2b3d
00000170: d1c2 11bd 9cd9 a93d 5d42 bc3c ed22 da3c
00000180: 5013 be3d 1973 04be b8ac ae3d d06f febc
00000190: 3d9c 333d c32d 023e f7ba 253d 8f04 96bd
000001a0: 1c13 f23c 65fb 37be 47f6 06be cd92 c83e
000001b0: eb0a afbd 2d8a a53c b713 193e ab77 073e
000001c0: 9c1b 47be c0ea 0a3e 3b87 c83d c618 76bd
000001d0: 2560 cfbd a569 53bc c017 a8bd 38d5 05bd
000001e0: 544f f4bd a44b 22bd 2562 633d 7bd6 b83a
000001f0: 2667 483d 14fe 073d e223 3a3e c7cd 49bd
00000200: 5c4f 02be 7560 173e efdd 9cbd 5113 c7bb
00000210: 3525 0cbe 2cb1 5fbd cb46 c9bd ca86 af3d
00000220: 14ff f6bd 2572 16bb a25c c6bc 2d5b 323e
00000230: 5f8c 1fbe b49d 5cbd a815 233e 4c3e 10bd
00000240: f95b a43d 2d13 65bd 26c3 893e e45e 8f3e
00000250: 0429 863d 7836 14be d91b 7f3e df6b ecbd
00000260: 0f9a ffbd 7fe7 9bbd 166b c53d 461d 32be
00000270: c25b a53b 3de9 1fbe ab6f 18be 25b4 59bd
00000280: 253b 8fbe d0fd a03d 0b8a 2abe 8878 663d
00000290: 294a c43d e853 2bbd cf1c ab3d b5a5 803d
000002a0: a57e 753d d23e eb3b 995a 013e 82aa 18be
000002b0: fb01 b8bd b3b8 68be af7b d4bd 3aa4 5a3e
000002c0: 1bf7 4ebd cdf5 3d3e cf59 3f3e bff8 5fbc
000002d0: b0b8 12bd c4ee aa3d e8a0 d53d 1d8f 1e3e
000002e0: 70a1 13be 6def d7ba b620 49bd e45f 2fbd
000002f0: 75c4 b53d 8200 4ebc 4149 48bd c4b3 bd3d
00000300: 0473 cdbd a68f 1abe bfc2 803d 5dda b73d
00000310: ded7 79bd ad2a 293e d990 3c3e 7c94 cbbd
00000320: a52f f7bd 9995 30be 0738 12bd 6f65 c73d
00000330: b3cd bf3d 32dd a7bd b775 c33c bc5d 1dbc
00000340: 06be 27be 760e 543d 96fa d33d 13e2 20be
00000350: 0051 8c3d bfec c8bc 8562 b4bc 40bb 3c3e
00000360: 4e51 383e e211 d93c aab1 6b3e f2ea 293e
00000370: d437 c53e 5207 e8bd c43b 8dbe afde 0c3e
00000380: 7d81 ef3d 1a76 083c 64f9 b1bd 1d56 203e
00000390: 4912 9fbd 3b4c aa3d 3f62 90bd 1ed1 d6bc
000003a0: 59fe c53d a282 d63d 5328 19bd 2b0f 803d
000003b0: bd07 d2bd 063b 0b3e 89ca 913e 3270 a13c
000003c0: 2596 ae3d 716b 42be 486c b7bd 11d2 f8bd
000003d0: 9769 6cbc f040 1e3e d1a3 233c 0388 82ba
000003e0: 8316 a43d 8de2 dc3d 023f 85bd a3ff b03d
000003f0: 03fc babd 5d4e a63e bc9e e0bd 4bc8 d43d
-0.1405414 0.08369787 -0.14315264 -0.11694121 -0.022860726 0.020210281 -0.06579126 -0.031021884
-0.19779252 0.2905331 -0.15752967 0.2689577 -0.013746032 0.17092192 0.09175866 0.04836019
-0.05751889 0.02702824 -0.016438818 0.016567275 -0.027762873 0.22818284 0.16097423 -0.17588718
-0.030317858 -0.11115753 -0.13147974 0.12738453 -0.058236655 -0.0016727493 -0.005107373 0.0036730347
-0.11651509 0.017813532 -0.08372046 -0.12470767 -0.20842344 -0.014213502 0.09522874 -0.043406695
0.12296314 0.06105194 0.0072806785 0.19001347 -0.010005374 0.008395952 -0.011786285 -0.066290975
0.16814744 0.1123252 0.025711907 -0.06303931 -0.05501197 0.11062513 -0.093996145 0.14733359
0.20054698 -0.1974231 0.026616434 0.09675796 -0.118641004 -0.052879628 0.15949507 0.014808034
-0.2276133 -0.13941912 -0.066943005 0.050394118 -0.063202776 -0.0045691156 0.046305533 0.05371825
0.015575377 0.107586406 -0.077748604 0.04555706 -0.057662975 -0.15166579 0.018197997 0.14158714
0.06926232 -0.1210626 -0.08881221 -0.009637447 0.104016416 0.014114354 -0.098491095 0.091296256
-0.18352684 -0.11153494 0.6243668 0.041813284 -0.035586182 0.08293459 0.022980863 0.026627982
0.09281027 -0.12934531 0.08529037 -0.031059176 0.043850172 0.12712769 0.040461507 -0.07325088
0.029550128 -0.17966993 -0.13179885 0.391745 -0.08547004 0.020207489 0.14948927 0.13229243
-0.19444126 0.13566113 0.09791418 -0.06008222 -0.1012576 -0.012903606 -0.08207655 -0.032674044
-0.11929193 -0.039622918 0.05551352 0.0014102006 0.048926495 0.033201292 0.1817775 -0.04926851
-0.12725586 0.14782889 -0.07659518 -0.0060753007 -0.13686068 -0.054612324 -0.09827956 0.08570631
-0.12060371 -0.002295622 -0.024214093 0.17417593 -0.15580891 -0.053861335 0.1592623 -0.03521566
0.08025355 -0.05592649 0.269067 0.28002083 0.06550792 -0.14473903 0.24912967 -0.11544012
-0.12480556 -0.07612514 0.09639566 -0.1739398 0.005046339 -0.15616317 -0.14886348 -0.053150315
-0.2797481 0.07860911 -0.16654222 0.05626729 0.095844574 -0.041828066 0.08355104 0.06281606
0.05993523 0.0071791196 0.12632217 -0.14908794 -0.08984753 -0.22726707 -0.10375153 0.2135171
-0.050528627 0.18550797 0.18686603 -0.0136701455 -0.035820663 0.08346322 0.10431081 0.15484281
-0.14417052 -0.0016474553 -0.04910346 -0.042816058 0.08875362 -0.012573363 -0.048897985 0.09262803
-0.10031703 -0.1509386 0.06287145 0.08977196 -0.060996883 0.16520186 0.1841463 -0.099404305
-0.12069634 -0.17244567 -0.035697963 0.09736144 0.09365406 -0.081964865 0.023859842 -0.009604868
-0.16381082 0.051771604 0.1035053 -0.1571124 0.06851387 -0.024526952 -0.022019634 0.18430805
0.17999765 0.026497785 0.23016992 0.16593531 0.38519156 -0.11329521 -0.2758466 0.13756822
0.1169462 0.008328939 -0.086901456 0.1565785 -0.077671595 0.08315321 -0.07049989 -0.026222762
0.096676536 0.10474135 -0.03739197 0.06252893 -0.10255382 0.13596734 0.28474835 0.01970682
0.085247315 -0.18986298 -0.089562 -0.12149442 -0.014429471 0.15454459 0.009987787 -0.0009958748
0.08012106 0.10785399 -0.065061584 0.08642509 -0.09130099 0.3248166 -0.10967776 0.10389765
